2025-05-31 18:59:09,545 | INFO | train.csv loaded (14705 rows)
2025-05-31 18:59:09,869 | INFO | valid.csv loaded (3152 rows)
2025-05-31 18:59:10,212 | INFO | test.csv loaded (3151 rows)
2025-05-31 18:59:10,277 | INFO | Tokenizer built: vocab=20000
2025-05-31 18:59:10,336 | INFO | Loading GloVe from glove.6B.100d.txt
2025-05-31 18:59:20,517 | INFO | GloVe coverage 11911 / 20000 (59.6%)
2025-05-31 18:59:20,720 | INFO | TextCNN(
  (embedding): Embedding(20000, 100, padding_idx=0)
  (convs): ModuleList(
    (0): Conv1d(100, 100, kernel_size=(3,), stride=(1,))
    (1): Conv1d(100, 100, kernel_size=(4,), stride=(1,))
    (2): Conv1d(100, 100, kernel_size=(5,), stride=(1,))
  )
  (dropout): Dropout(p=0.5, inplace=False)
  (fc): Linear(in_features=300, out_features=3, bias=True)
)
2025-05-31 18:59:23,620 | INFO | Epoch 01 | train_loss 0.9240  train_F1 0.5496 | val_loss 0.7543  val_F1 0.6700 | time 1.5s
2025-05-31 18:59:24,750 | INFO | Epoch 02 | train_loss 0.7024  train_F1 0.7041 | val_loss 0.6885  val_F1 0.7126 | time 1.1s
2025-05-31 18:59:25,882 | INFO | Epoch 03 | train_loss 0.5991  train_F1 0.7614 | val_loss 0.6647  val_F1 0.7250 | time 1.1s
…
2025-05-31 18:59:45,707 | INFO | 
              precision    recall  f1-score   support

         neg       0.74      0.65      0.69      1050
         neu       0.59      0.59      0.59      1050
         pos       0.70      0.79      0.74      1051

    accuracy                           0.68      3151
   macro avg       0.68      0.68      0.67      3151
weighted avg       0.68      0.68      0.67      3151

2025-05-31 18:59:45,709 | INFO | Confusion matrix:
[[681 269 100]
 [175 621 254]
 [ 66 158 827]]
2025-05-31 18:59:45,709 | INFO | Artifacts saved in baseline_cnn
2025-05-31 19:53:27,893 | INFO | SentenceCNN(
  (conv): Conv1d(1, 512, kernel_size=(1,), stride=(1,))
  (act): ReLU()
  (pool): AdaptiveMaxPool1d(output_size=1)
  (drop): Dropout(p=0.5, inplace=False)
  (fc): Linear(in_features=512, out_features=3, bias=True)
)
2025-05-31 19:54:01,895 | INFO | SentenceCNN(
  (conv): Conv1d(1, 512, kernel_size=(1,), stride=(1,))
  (act): ReLU()
  (pool): AdaptiveMaxPool1d(output_size=1)
  (drop): Dropout(p=0.5, inplace=False)
  (fc): Linear(in_features=512, out_features=3, bias=True)
)
2025-05-31 19:54:35,971 | INFO | SentenceCNN(
  (conv): Conv1d(1, 384, kernel_size=(1,), stride=(1,))
  (act): ReLU()
  (pool): AdaptiveMaxPool1d(output_size=1)
  (drop): Dropout(p=0.5, inplace=False)
  (fc): Linear(in_features=384, out_features=3, bias=True)
)
2025-05-31 20:02:49,693 | INFO | SentenceCNN(
  (conv): Conv1d(1, 512, kernel_size=(1,), stride=(1,))
  (act): ReLU()
  (pool): AdaptiveMaxPool1d(output_size=1)
  (drop): Dropout(p=0.5, inplace=False)
  (fc): Linear(in_features=512, out_features=3, bias=True)
)
2025-05-31 20:04:01,081 | INFO | SentenceCNN(
  (conv): Conv1d(1, 512, kernel_size=(1,), stride=(1,))
  (act): ReLU()
  (pool): AdaptiveMaxPool1d(output_size=1)
  (drop): Dropout(p=0.5, inplace=False)
  (fc): Linear(in_features=512, out_features=3, bias=True)
)
2025-05-31 20:04:04,021 | INFO | Epoch 01 | train_loss 1.1166  train_F1 0.3332 | val_loss 1.1016  val_F1 0.1660 | time 1.3s
2025-05-31 20:04:05,020 | INFO | Epoch 02 | train_loss 1.0989  train_F1 0.3380 | val_loss 1.0853  val_F1 0.3630 | time 1.0s
2025-05-31 20:04:05,970 | INFO | Epoch 03 | train_loss 1.0919  train_F1 0.3563 | val_loss 1.0829  val_F1 0.4010 | time 1.0s
…
